…
eters are trainable. Memory load. The finetuning configurations have the same inference cost since they share the same ViT architecture. However, the number of trainable parameters differs. The GPU usage of training model consists of the memory load to store the model parameters, the optimizer states, the gradients, and the activations (Thor, 2025). In our setting, the 25 Vision Transformer Benefits from Non-Smooth Components # Python snippet to print the ViT architecture from my_lib import ViT model = ViT(name=\"base\", n_classes=10) print(model) # Corresponding output Transformer( (embedding): Embedding( (patching): PatchImages( (patching): Sequential( (0): Conv2d(3, 768, kernel_size=(16, 16), stride=(16, 16)) (1): Flatten(start_dim=2, end_dim=-1) ) ) ) (blocks): ModuleList( (0-11): 12 TransformerBlock( (attn_norm): LayerNorm((768,), eps=1e-12, elementwise_affine=True) (attn): SelfAttention( (qkv_mat): Linear(in_features=768, out_features=2304, bias=True) (output): Linear(in_features=768, out_features=768, bias=True) ) (ffn_norm): LayerNorm((768,), eps=1e-12, elementwise_affine=True) (ffn): FeedForward( (fc1): Linear(in_features=768, out_features=3072, bias=True) (fc2): Linear(in_features=3072, out_features=768, bias=True) ) ) ) (output): Output( (output_layer): ClassificationLayer( (output_norm): LayerNorm((768,), eps=1e-12, elementwise_affine=True) (output): Linear(in_features=768, out_features=10, bias=True) ) ) ) Figure 5. ViT-Base Implementation. Table 3. Finetuning configurations. Configurations are denoted by the name of the trainable transformer component and ordered in terms of plasticity ranking (see Section 5.1). We report the number of trainable parameters on ViT-Base. configuration MHA FC FC2 LN2 LN1 parameters % of total 28M 28M 28M 18K 18K 0.02 
…
