…
 output. In our code, we follow the original ViT implementation from Dosovitskiy et al. (2021) and use convolutional layer to embed images (see Dosovitskiy et al., 2021, Hybrid Architecture\"). This is also the standard in the implementation from HuggingFace (2025). In Fig. 4, we display the implementation of the ViT-Base model with classification head for 10 classes (we renamed our package my_lib\" to respect the anonymity). # Python snippet to print the ViT architecture from my_lib import ViT model = ViT(name=\"base\", n_classes=10) print(model) # Corresponding output Transformer( (embedding): Embedding( (patching): PatchImages( (patching): Sequential( (0): Conv2d(3, 768, kernel_size=(16, 16), stride=(16, 16)) (1): Flatten(start_dim=2, end_dim=-1) ) ) ) (blocks): ModuleList( (0-11): 12 TransformerBlock( (attn_norm): LayerNorm((768,), eps=1e-12, elementwise_affine=True) (attn): SelfAttention( (qkv_mat): Linear(in_features=768, out_features=2304, bias=True) (output): Linear(in_features=768, out_features=768, bias=True) ) (ffn_norm): LayerNorm((768,), eps=1e-12, elementwise_affine=True) (ffn): FeedForward( (fc1): Linear(in_features=768, out_features=3072, bias=True) (fc2): Linear(in_features=3072, out_features=768, bias=True) ) ) ) (output): Output( (output_layer): ClassificationLayer( (output_norm): LayerNorm((768,), eps=1e-12, elementwise_affine=True) (output): Linear(in_features=768, out_features=10, bias=True) ) ) ) Figure 4: ViT-Base Implementation. Data preprocessing. All our experiments are conducted on varied collection of 11 classification benchmarks: Cifar10, Cifar100 (Krizhevsky, 2009); variants from Cifar10-C (Hendrycks & Dietterich, 2019) with severity 5: Contrast, Gaussian Noise, Motion Blur, Snow, Speckle Noise; 2 domains from 8 Published as confer
…
