…
 bases Dimension of hidden scalar features in radial functions dedge Maximum degree Lmax Maximum order Mmax Number of Transformer blocks Embedding dimension dembed (L) ij dimension after SwiGLU-S2 dattn hidden Number of attention heads (0) ij dimension dattn alpha Value dimension dattn value Hidden dimension in feedforward networks after SwiGLU-S2 df Resolution of grid points in attention (Rϕ, Rθ) Resolution of grid points in feedforward networks (Rϕ, Rθ) Probability of optimizing DeNS pDeNS DeNS coefficient λDeNS Standard deviation of Gaussian noise σ Corruption ratio rDeNS 6 300 Gaussian 10 (0, 128) 4 2 7 (4, 128) (4, 32) 8 (0, 64) (4, 16) (4, 512) (8, 14) (14, 14) 0.5 10 0.025 0. Table 10. Hyper-parameters for the MPtrj dataset. 6 300 Gaussian 10 (0, 128) 4 2 7 (4, 128) (4, 32) 8 (0, 64) (4, 16) (4, 512) (8, 14) (14, 14) 0.0 0.0 0.0 0.0 22 EquiformerV3: Scaling Efficient, Expressive, and General SE(3)-Equivariant Graph Attention Transformers Hyper-parameters Optimizer Learning rate scheduling Warmup epochs Maximum learning rate Batch size Number of epochs Weight decay Dropout rate Stochastic depth Energy coefficient λE Force coefficient λF Stress coefficient λs Gradient clipping norm threshold Model EMA decay Gradi
…
